Part 1 - Into to Computer Vision/saved models/model_1.pt (torch_old, 28700 bytes, 6 tensors)

conv1.weight f4 [10, 1, 3, 3]
0	0xbe208a31	-0.15677716
1	0x3ef3d19c	0.47620857
2	0xbef1e330	-0.47243643
3	0x3ec90e1f	0.39268586
4	0x3e460b78	0.19340312
5	0xbf118f20	-0.56859016
6	0x3ec2b1e7	0.38026354
7	0x3f040617	0.5157179
8	0xbf24327e	-0.64139545
9	0x3ea36126	0.31910056
10	0xbf70415b	-0.93849725
11	0xbecd29fc	-0.40071094
12	0xbf86445f	-1.0489615
13	0xc0b0419a	-5.508008
14	0xc08f2181	-4.47284
15	0x3e692d3d	0.22771163
16	0xbdf499a7	-0.11943369
17	0xbf65e2c3	-0.89799136
18	0xbece66c9	-0.40312794
19	0x3de00db0	0.10940111
20	0x3ead993f	0.3390598
21	0xbc8694b0	-0.016428322
22	0xbf013d19	-0.5048385
23	0x3f1e9aba	0.61954844
24	0xbe15a707	-0.14614497
25	0xbf225fc2	-0.63427365
26	0x3f325d6f	0.6967382
27	0x3f0ebfae	0.5576123
28	0x3da7ec0d	0.0819932
29	0x3f2a282b	0.6646754
30	0xbea80ca3	-0.3282214
31	0x3f0696dd	0.5257395
32	0xbd0c7c56	-0.034298263
33	0xbe803825	-0.25042835
34	0xbf1f7f62	-0.62303746
35	0xbf1b873a	-0.60753214
36	0xbf2a5822	-0.6654073
37	0xc094272b	-4.6297812
38	0xbf725872	-0.94666207
39	0x3ec3386c	0.38128984
40	0xbf7e2d40	-0.99287796
41	0x3eeffb26	0.468713
42	0x3e1f03de	0.15528819
43	0x3daaec47	0.083458476
44	0x3ee1abbc	0.44076335
45	0x3ebe48b2	0.37164837
46	0x3f02b20d	0.51052934
47	0x3de5a5b5	0.11213247
48	0x3ef7a399	0.48367003
49	0xbee75ef7	-0.4518964
50	0xbeef6b93	-0.4676176
51	0x3da0c229	0.07849533
52	0xbee9feb2	-0.4570213
53	0xbe30af2f	-0.17254327
54	0x3f0a87e8	0.54113626
55	0xbeda38d2	-0.42621475
56	0xbeb82151	-0.35962918
57	0x3f02e67f	0.5113296
58	0xbf0ee219	-0.5581375
59	0xbf450b17	-0.76970047
60	0x3ebee505	0.37284103
61	0x3d82356b	0.06357845
62	0xbe95be6b	-0.2924684
63	0x3e397cf2	0.18114069
64	0x3ebb2320	0.36550236
65	0xbe91c3e2	-0.2846976
66	0x3eeb253c	0.45926845
67	0xbeafef66	-0.34362334
68	0x3e9ae037	0.30249187
69	0xbf02cf1a	-0.5109726
70	0x3e872677	0.26396534
71	0x3d2c9a8d	0.04213958
72	0xbea24d04	-0.31699383
73	0x3ec82ee9	0.3909829
74	0xbdf308e2	-0.11866929
75	0xbf276feb	-0.6540515
76	0x3ed2a75e	0.41143316
77	0x3e811aaa	0.25215656
78	0xbed25af5	-0.4108502
79	0x3dee1632	0.11625327
80	0x3ebee624	0.37284958
81	0x3f284556	0.657308
82	0xbedc7243	-0.43055925
83	0xbe4d1996	-0.20029292
84	0x3d554e3d	0.052076567
85	0xbf1cb480	-0.6121292
86	0x3f17c245	0.59280807
87	0x3d22a1d0	0.039705098
88	0xbdb8b9d0	-0.09019816
89	0x3d130636	0.035894595

conv1.bias f4 [10]
0	0xbd0fa87b	-0.035072785
1	0x3f287cb3	0.65815276
2	0xbcb21780	-0.021739721
3	0x3a3f8a46	0.0007306676
4	0x3e690428	0.22755492
5	0xbd225f16	-0.039641462
6	0x3e561e05	0.20909889
7	0xbe278edd	-0.16363092
8	0x3ca7030f	0.0203872
9	0x3d02a2de	0.031893604

conv2.weight f4 [20, 10, 3, 3]
0	0x3d9bc0b3	0.07605114
1	0xbe899905	-0.26874557
2	0xbd2feffa	-0.04295347
3	0x3de0d82a	0.1097873
4	0xbe35a3fa	-0.17738333
5	0xbe166741	-0.14687826
6	0xbd35538d	-0.044269133
7	0xbf2550f3	-0.64576644
8	0xbed2c276	-0.41163987
9	0xbdf594b1	-0.11991251
10	0xbce261a4	-0.02763445
11	0x3f42e235	0.76126415
12	0xbf6b1165	-0.91823417
13	0xbe1e6924	-0.15469795
14	0x3f0bf9df	0.5467815
15	0xbe5ba168	-0.2144829
16	0x3f2cbbb8	0.67473936
17	0xbe03b3df	-0.12861584
18	0x3d5e927c	0.054338917
19	0xbd7ef36a	-0.062243856
20	0x3e56c85b	0.20974867
21	0xbf13d702	-0.5774995
22	0xbf3f3aaa	-0.7469889
23	0xbf39effe	-0.72631824
24	0xbf2dc8f9	-0.67884785
25	0xbf89331f	-1.0718726
26	0xbef2afaa	-0.47399646
27	0x3eba4150	0.36377954
28	0xbe83faa9	-0.25777176
29	0xbe7b4b43	-0.24540429
30	0x3d86b8b7	0.065782
31	0x3e0ecd7a	0.1394557
32	0xbef91d4f	-0.48655173
33	0x3e917f96	0.28417653
34	0x3f4d4c61	0.8019467
35	0x3eac2acd	0.33626404
36	0xbe34f4bb	-0.17671482
37	0x3e999a1a	0.30000383
38	0x3f13b947	0.57704586
39	0xbeafaab8	-0.34309936
40	0xbec19c1b	-0.37814412
41	0x3ec5464f	0.38530204
42	0xbe18c738	-0.14919746
43	0xbe731854	-0.23739749
44	0x3f862983	1.0481418
45	0xbe4e3155	-0.20136006
46	0x3ddd2ade	0.10799192
47	0x3ee3b9b7	0.44477627
48	0x3c5acd3f	0.013354599
49	0xbeb5e0e9	-0.35523155
50	0x3e173923	0.1476789
51	0xbe8f7bdc	-0.28024185
52	0xbd865e22	-0.06560923
53	0xbef5e690	-0.48027468
54	0xbe9f8550	-0.31156397
55	0xbed4d9b7	-0.41572353
56	0x3ea5387f	0.32269666
57	0x3d225307	0.039629962
58	0xbda732bf	-0.08163976
59	0x3f278646	0.6543926
60	0x3dcb1a6c	0.09917149
61	0x3ca0d47f	0.019632576
62	0x3e7496f3	0.23885708
63	0x3d330b0d	0.04371171
64	0xbcbe27e2	-0.023212377
65	0x3e1bb236	0.15204701
66	0x3c94fbb9	0.018186437
67	0x3c28d9cb	0.010305832
68	0xbdc0bb47	-0.0941072
69	0xbe1b2253	-0.15149812
70	0x3dd0b3b4	0.10190526
71	0x3e4a9d71	0.19786622
72	0x3e0339af	0.12814973
73	0x3e0057af	0.12533449
74	0x3f025165	0.5090545
75	0xbea63a52	-0.3246637
76	0xbf16706a	-0.5876528
77	0xbe9408ba	-0.28912908
78	0x3e98531a	0.297509
79	0xbf8793c2	-1.0591967
80	0xbef69558	-0.48160815
81	0x3e2e5377	0.17024027
82	0x3f0ae844	0.5426066
83	0x3d738b32	0.05945892
84	0xbc3e7ec1	-0.0116269
85	0x3cc94bd7	0.024572296
86	0xbe7011bb	-0.23444264
87	0xbf35da24	-0.7103598
88	0xbf194bd3	-0.59881324
89	0xbf22c153	-0.6357624
90	0xbeab1627	-0.33415338
91	0x3f0b466e	0.5440434
92	0x3e06c493	0.13160925
93	0xbee428ad	-0.44562283
94	0x3b83b852	0.0040197754
95	0xbe06525e	-0.13117358
96	0x3d8e9c27	0.069633774
97	0x3d1eaa53	0.038736653
98	0x3de4630e	0.11151706
99	0x3d481d3e	0.048856013
100	0x3e9be822	0.3045054
101	0xbe2eb5ae	-0.17061493
102	0x3cf3c6bd	0.029757852
103	0xbdb0c93b	-0.08632132
104	0xbf23aaa7	-0.6393227
105	0x3f935746	1.1511009
106	0x3e13fb55	0.14451344
107	0xbf2de76b	-0.6793124
108	0x3d773aa7	0.06035867
109	0xbef19827	-0.47186396
110	0xbf10cd05	-0.56562835
111	0x3eb26a12	0.3484655
112	0xbf0a8236	-0.54104936
113	0xbeabec15	-0.33578554
114	0x3e3b72ba	0.18305483
115	0x3f0addf8	0.5424495
116	0xbce12d09	-0.027487295
117	0x3d61d646	0.055135988
118	0x3e32b206	0.17450723
119	0xbd91349d	-0.07090113
120	0x3e1790e7	0.1480137
121	0x3e280f25	0.16412027
122	0xbe73a02c	-0.2379157
123	0xbee38798	-0.44439387
124	0xbed0b093	-0.40759715
125	0x3ecedb6f	0.4040179
126	0xbe05348a	-0.13008323
127	0x3ea9525d	0.3307065
128	0xbe0026f7	-0.12514864
129	0x3e48a463	0.19593959
130	0xbf208894	-0.627084
131	0xbeb7a7dd	-0.35870257
132	0xbe88ab22	-0.26693064
133	0x3d813166	0.0630825
134	0xbec2d706	-0.38054675
135	0x3c4884b1	0.012238667
136	0xbebad681	-0.36491778
137	0x3e4a28d4	0.19742137
138	0xbca1bb71	-0.0197427
139	0xbedb3015	-0.4281012
140	0xbe336cfc	-0.17522043
141	0xbeebb521	-0.46036628
142	0x3ea9e2e2	0.3318091
143	0x3edde8aa	0.4334157
144	0xbec27336	-0.37978524
145	0xbe975814	-0.29559386
146	0xbc607a9a	-0.0137011055
147	0x3e79217d	0.24329181
148	0xbdd26a9c	-0.102742404
149	0xbed9da65	-0.42549434
150	0x3da9d4b0	0.0829252
151	0x3e5daffe	0.21649167
152	0xbd807684	-0.06272605
153	0x3e2f8fc3	0.17144684
154	0x3c9e1f4b	0.019302031
155	0xbd21f18d	-0.039537
156	0x3db2ee8b	0.08736905
157	0x3e08a7a6	0.13345203
158	0x3e32fc95	0.17479165
159	0xbe90ca4e	-0.28279346
160	0x3d7ad14a	0.06123475
161	0xbec45258	-0.38344073
162	0xbe824163	-0.2544051
163	0x3d2d7be2	0.042354472
164	0xbe65532a	-0.22395006
165	0xbee2816c	-0.44239366
166	0x3f0d1b9c	0.55120254
167	0xbe04ab66	-0.12956008
168	0xbf64d400	-0.89385986
169	0x3f1be884	0.60901666
170	0xbe0ed3ed	-0.13948031
171	0xbea24983	-0.3169671
172	0xbe0241bf	-0.12720393
173	0x3eaf6ff8	0.34265113
174	0x3e630897	0.22171246
175	0xbda3d81e	-0.080002055
176	0x3e571ee1	0.21007873
177	0xbc960b8b	-0.018316051
178	0x3e58b1e0	0.21161604
179	0xbea1e725	-0.31621662
180	0xbe99d323	-0.30043897
181	0xbf01a635	-0.50644237
182	0xbdfc7256	-0.12326495
183	0x3ec55e63	0.38548574
184	0x3d209a87	0.03920987
185	0xbd1fbb99	-0.038997266
186	0x3f149517	0.58039993
187	0x3f1c5457	0.6106619
188	0x3efaaffd	0.48962393
189	0x3edd9403	0.43276986
190	0x3f65c1f1	0.89749056
191	0x3f44499c	0.7667482
192	0xbf0386dd	-0.5137766
193	0xbe026275	-0.12732871
194	0xbde297aa	-0.11064084
195	0xbeeead80	-0.46616745
196	0xbf756372	-0.95854867
197	0xbd62cc07	-0.055370357
198	0xbefcd0c0	-0.49378014
199	0xbf58fa08	-0.8475652
200	0x3de3269c	0.110913485
201	0xbeeea665	-0.46611324
202	0xbeb0c00b	-0.34521517
203	0xbeacd301	-0.33754733
204	0x3dd15579	0.10221381
205	0x3d46ce54	0.048536614
206	0xbea01571	-0.31266358
207	0x3ecd946b	0.40152296
208	0xbe2aad3e	-0.16667649
209	0xbf2df763	-0.6795561
210	0x3eff4e84	0.4986459
211	0xbc132275	-0.008980383
212	0xbe84425b	-0.25831875
213	0x3bbeb045	0.005819353
214	0xbdb6f229	-0.08932907
215	0xbe04e7f9	-0.12979116
216	0xbdf51e52	-0.11968674
217	0x3f477738	0.7791629
218	0x3e9202c3	0.28517732
219	0x3d114697	0.03546771
220	0xbdad6c4c	-0.084679216
221	0xbe142b76	-0.14469704
222	0xbf31f8de	-0.69520366
223	0xbf1eaa5c	-0.619787
224	0x3eaed8bc	0.3414973
225	0xbe373c1c	-0.17894024
226	0xbe31e4b7	-0.17372404
227	0xbe385ced	-0.18004198
228	0x3ee1b83d	0.44085875
229	0x3ed5ef0e	0.41783947
230	0x3d118d0a	0.035534896
231	0xbe3b9bb6	-0.18321118
232	0x3e86ab45	0.26302543
233	0xbec5d799	-0.3864105
234	0x3ec00a3b	0.37507805
235	0x3db16644	0.08662084
236	0x3d4a8aa6	0.04944863
237	0xbe2b36e5	-0.1672016
238	0x3df45ac5	0.119313754
239	0xbe6c2f67	-0.23064958
240	0xbd893056	-0.066986725
241	0xbd12e84d	-0.03586607
242	0xbe8f1a0d	-0.27949563
243	0x3ebb8dd2	0.36631638
244	0xbe6efe5d	-0.2333922
245	0xbbd650d9	-0.0065403995
246	0x3edfe95b	0.43732724
247	0xbe2e55ec	-0.17024964
248	0xbf4ce294	-0.8003323
249	0x3e94da0d	0.2907261
250	0x3e34b46a	0.17646948
251	0x3f0e5d18	0.556108
252	0xbe9fd809	-0.3121951
253	0xbf58733b	-0.8455083
254	0x3f1f4a55	0.62222797
255	0x3e7718d5	0.24130566

conv2.bias f4 [20]
0	0x3ed8bf6b	0.4233354
1	0x3e20fc76	0.15721306
2	0x3d728dd9	0.059217308
3	0xbe8d3c98	-0.27585292
4	0xbea36e96	-0.31920308
5	0x3ecb4118	0.396981
6	0x3d2901d1	0.041261498
7	0xbee18481	-0.44046405
8	0x3b97b921	0.0046302234
9	0x3ecc349a	0.39883882
10	0x3d268458	0.040653557
11	0xbd6693c6	-0.05629327
12	0x3f1edb45	0.6205333
13	0x3e9fcf68	0.31212926
14	0xbf0adbad	-0.5424145
15	0xbd643664	-0.055715933
16	0xbe2a533b	-0.16633312
17	0x3f51deec	0.81980777
18	0xbdc8595f	-0.09782671
19	0xbdc3326b	-0.09531101

fc1.weight f4 [10, 500]
0	0xbe6b02de	-0.22950312
1	0xbe5d934a	-0.21638218
2	0x3dd77050	0.10519469
3	0x3e4f8cb2	0.20268515
4	0xbe3d9710	-0.18514657
5	0xbd00a958	-0.0314115
6	0xbd4eeefd	-0.050520886
7	0x3d64bf23	0.055846345
8	0x3df3edc0	0.119105816
9	0x3d870019	0.065918155
10	0xbc0decb4	-0.008662391
11	0x3eba501c	0.36389244
12	0xbe4d03f9	-0.20021047
13	0xbe6a145e	-0.22859332
14	0xbddc1095	-0.1074535
15	0xbd0027ce	-0.03128796
16	0x3d3c08e8	0.04590693
17	0x3ee147f3	0.44000205
18	0x3eaa0d77	0.33213398
19	0x3e092fb2	0.133971
20	0x3dfc6a62	0.123249784
21	0xbecb3b41	-0.39693645
22	0x3edbd4db	0.42935833
23	0x3c8b2015	0.016983071
24	0x3e023802	0.12716678
25	0x3dd5bae7	0.104360394
26	0xbe2333fc	-0.15937799
27	0xbb363e52	-0.0027808142
28	0x3e849840	0.25897408
29	0x3ce8a349	0.028398173
30	0xbdfc77ae	-0.123275146
31	0x3e74116a	0.23834768
32	0xbf14c2dc	-0.5810983
33	0xbe51462e	-0.20436928
34	0xbdaaf943	-0.08348324
35	0x3e69d1d2	0.22833946
36	0x3dae4eac	0.08511099
37	0xbf2daf4a	-0.67845595
38	0x3da8605d	0.08221505
39	0x3dcf22f0	0.10114086
40	0x3eaf0f49	0.3419135
41	0xbdeb4956	-0.11488597
42	0xbf559c53	-0.83441657
43	0xbe47476e	-0.19460842
44	0x3c8ac3b7	0.016939027
45	0xbe1dcdf9	-0.15410604
46	0x3cfd6a70	0.030934542
47	0x3ea05b3d	0.3131961
48	0xbd5b5d91	-0.05355603
49	0xbf2e33cc	-0.68047786
50	0x3d817d27	0.06322699
51	0x3e76164a	0.2403194
52	0x3ddb8b2b	0.107199036
53	0xbf2f448b	-0.68463963
54	0xbe99b65b	-0.3002194
55	0x3f50272e	0.81309783
56	0x3de4bf2c	0.11169276
57	0xbdaa2f49	-0.083098
58	0x3deee531	0.116648085
59	0x3ccf442f	0.025301067
60	0xbe9f5389	-0.3111842
61	0x3e4bd9ad	0.19907255
62	0x3d8995af	0.06718003
63	0x3e219773	0.1578043
64	0xbeb40703	-0.351616
65	0xbf90a8a4	-1.1301465
66	0xbec60f67	-0.38683626
67	0xbcb1d6f8	-0.02170895
68	0x3d83c4f7	0.064340524
69	0x3ca86fca	0.020561118
70	0xbed8ddfb	-0.42356858
71	0xbf24d960	-0.6439419
72	0xbe67fd45	-0.22655208
73	0x3dd937e3	0.10606363
74	0x3e847a89	0.25874737
75	0x3dccf049	0.10006768
76	0x3d09ba59	0.03362498
77	0xbe718f22	-0.23589757
78	0x3e86f5fa	0.2635954
79	0xbec48f7f	-0.3839073
80	0xbe8f29ca	-0.2796157
81	0xbf257755	-0.6463521
82	0xbe9c293b	-0.30500206
83	0x3ec91c8f	0.392796
84	0x3eabe2a3	0.33571348
85	0xbea6f139	-0.32605913
86	0x3b8a7b76	0.0042261435
87	0x3f1c3797	0.61022323
88	0x3dc6b2e3	0.09702089
89	0x3ef9693e	0.48713106
90	0x3dd07d6c	0.10180172
91	0xbe4a1318	-0.19733846
92	0xbf8ea07a	-1.1142724
93	0x3efc8d21	0.49326423
94	0x3eae1c2e	0.34005874
95	0x3e892b61	0.26790908
96	0xbf45e4dc	-0.77302337
97	0xbf375671	-0.71616274
98	0xbf86a6ab	-1.0519613
99	0xbe92b38e	-0.28652614
100	0xbc876060	-0.016525447
101	0xbe13f1e6	-0.14447746
102	0x3e86b065	0.26306453
103	0x3e4fd156	0.20294699
104	0xbe73c254	-0.23804599
105	0xbe1426d9	-0.14467944
106	0x3e163f27	0.14672528
107	0xbe99090d	-0.29889718
108	0x3e01b887	0.12668048
109	0x3db458e3	0.08806016
110	0xbea3fb2e	-0.32027572
111	0xbe228b0c	-0.15873355
112	0x3e89a37b	0.26882538
113	0xbd087245	-0.0333121
114	0xbeb8077a	-0.35943204
115	0x3eceaadb	0.40364727
116	0xbe1c4c9a	-0.15263596
117	0xbda15d01	-0.07879067
118	0x3ebd5905	0.3698198
119	0xbf1228a6	-0.57093275
120	0xbeae5ffc	-0.34057605
121	0xbea3f2d2	-0.32021195
122	0x3e54c347	0.20777617
123	0x3c1f4e25	0.009723221
124	0xbd470a14	-0.048593596
125	0xbe07346c	-0.13203591
126	0x3de20a98	0.11037177
127	0x3e9b8290	0.3037305
128	0x3ebe288f	0.3714032
129	0x3f2bf59b	0.6717164
130	0xbdb09ff7	-0.08624261
131	0x3cad9def	0.021193473
132	0x3f01f935	0.50770885
133	0x3dd3c2bb	0.10339876
134	0x3e5d6168	0.21619189
135	0x3e6dc3f9	0.23219289
136	0xbd55b28e	-0.052172236
137	0x3e606759	0.21914424
138	0xbea1c72a	-0.31597263
139	0xbe7e7ca6	-0.24852237
140	0xbe8d65ad	-0.27616635
141	0x3d060600	0.032720566
142	0xbe80bfab	-0.2514623
143	0xbe7ef339	-0.2489747
144	0x3c0a8ed3	0.0084569035
145	0xbeecfd93	-0.46287212
146	0xbdfa1881	-0.12211705
147	0xbe856942	-0.26056868
148	0xbf07dcd3	-0.53071326
149	0xbf05273a	-0.5201298
150	0xbe4babbd	-0.19889732
151	0x3e33fbb3	0.17576484
152	0xbe7a17b3	-0.24423103
153	0xbe896a7b	-0.2683905
154	0xbe52f834	-0.20602494
155	0x3e6c1c08	0.23057568
156	0x3e184b18	0.14872396
157	0xbe0ceb05	-0.13761528
158	0x3ee71654	0.45134223
159	0xbd6c6556	-0.05771383
160	0xbd001ec2	-0.031279333
161	0xbc13cb2d	-0.009020609
162	0xbec33904	-0.38129437
163	0xbe5d452c	-0.21608418
164	0xbd2b26eb	-0.041785162
165	0x3e44c46e	0.19215557
166	0x3e39ce84	0.18145186
167	0x3e13d749	0.14437594
168	0xbe83f6da	-0.2577427
169	0xbe89fd0b	-0.2695087
170	0xbf61f143	-0.8825876
171	0x3e596352	0.21229294
172	0xbe2a6b56	-0.16642508
173	0xbb9cca6f	-0.004784874
174	0x3ee99b32	0.45626217
175	0xbee0eff1	-0.4393306
176	0x3d25d6b3	0.040487956
177	0x3edd395e	0.4320783
178	0xbeb550eb	-0.35413298
179	0xbd4cadc1	-0.049970392
180	0xbefb5ab2	-0.49092633
181	0x3d1f7292	0.038927622
182	0xbe89958b	-0.26871905
183	0x3e3c564f	0.18392299
184	0xbeb968bd	-0.3621272
185	0x3b44555c	0.0029958105
186	0x3e957d1c	0.29197013
187	0xbf5b837b	-0.857475
188	0x3e85bfaa	0.2612279
189	0x3ec4ee82	0.38463217
190	0xbd83bb39	-0.06432194
191	0xbe0b5803	-0.13607793
192	0xbf04f7fb	-0.5194089
193	0xbc895678	-0.016764864
194	0x3c24bc98	0.01005473
195	0x3d83bf1e	0.06432937
196	0x3e6df03e	0.23236176
197	0x3dc48919	0.09596462
198	0xbe7b7708	-0.24557126
199	0xbe55987f	-0.20858954
200	0x3c87559d	0.016520316
201	0xbe281732	-0.16415098
202	0x3e3bb085	0.18329056
203	0x3d226fc1	0.039657358
204	0x3e55b49c	0.20869678
205	0xbda3003e	-0.079590306
206	0xbe2af5cb	-0.16695325
207	0xbee5ac69	-0.448581
208	0xbdd86b96	-0.105673954
209	0xbdbca6e1	-0.09211517
210	0x3db97128	0.09054786
211	0xbe3936be	-0.18087289
212	0xbeec0b4d	-0.46102372
213	0x3ddf4bbd	0.10903118
214	0x3c221a90	0.009894028
215	0x3e1fa02e	0.15588447
216	0xbd828ef3	-0.06374922
217	0x3da99872	0.0828103
218	0x3e006ac3	0.12540726
219	0xbd5cabf2	-0.053874917
220	0xbeac0ee1	-0.33605102
221	0xbea2391e	-0.31684202
222	0xbe02ba9e	-0.12766501
223	0x3db3638c	0.087592214
224	0x3e082051	0.13293578
225	0x3e9ff59e	0.3124208
226	0xbedf4ea7	-0.43614694
227	0xbeb03c2b	-0.34420905
228	0x3e85f65c	0.2616452
229	0x3c690a82	0.014223697
230	0xbd71b070	-0.059006155
231	0x3e420745	0.18948086
232	0xbc8a0830	-0.016849607
233	0xbda85f54	-0.082213074
234	0x3ecff185	0.40613952
235	0x3e775210	0.24152398
236	0x3e2e7661	0.17037345
237	0x3ee59b06	0.44844836
238	0xbf4ab34e	-0.7917985
239	0xbf01d08f	-0.5070886
240	0x3e7f5136	0.24933323
241	0x3e2adf06	0.16686639
242	0xbda344fe	-0.079721436
243	0x3eb1d6f4	0.3473431
244	0xbf3dea0d	-0.7418526
245	0xbf19be09	-0.60055596
246	0x3d80cc63	0.06288984
247	0x3f17f38a	0.59355986
248	0x3ed1ee26	0.41002005
249	0xbd607dd6	-0.054807507
250	0xbdf9b96d	-0.1219357
251	0xbd33ee42	-0.043928392
252	0x3d7e0ddc	0.062024936
253	0xbedb21fc	-0.42799366
254	0xbe6a8975	-0.22903998
255	0xbcf367b6	-0.02971254

fc1.bias f4 [10]
0	0xbebfb420	-0.37442112
1	0x3b89a694	0.004200766
2	0x3dad9d22	0.08477236
3	0xbdca2fc3	-0.09872391
4	0xbed4f76c	-0.41595018
5	0xbe52fea5	-0.20604952
6	0x3efce05b	0.4938992
7	0x3e46ba55	0.19407018
8	0x3e8d9a4c	0.27656782
9	0x3cdcbe5a	0.026946235
